autoencoder_model.pt (torch, 276450 bytes, 32 tensors)

encoder.0.weight f4 [16, 3, 3, 3]
00000000: 0b68 013e 5236 1a3e 5dc3 cfbd 0bb8 38be
00000010: 88a8 183e d8eb ce3d b2ab 49ba 7a41 f6bc
00000020: 38b4 e83d 9c2f 7dbd 64a1 23bd 6871 42be
00000030: 74e3 433d df61 b8bb 42d5 5ebd 557f 1bbe
00000040: 8ade 493e 3a42 95bd b310 38be a14e d93b
00000050: bd4c 043d a702 0f3e dd5a 2a3e 150f 51bd
00000060: 06a1 19bd a771 ed3d 578a b73d 4dac bbbd
00000070: 036d e1bd b006 a93d bd0a d63c 6e58 763d
00000080: d903 20be 0e5e 393c 6916 cdbd 3296 333e
00000090: 0ed7 2c3e e731 2dbe 3331 31be 14c7 3f3d
000000a0: 831b f43d 68b3 36bd 8942 04be 1da6 a33d
000000b0: e7eb 52bd 8341 f73d 53cf e7bd 8b2d 13be
000000c0: ede7 fbbd d14c 8abc 0c25 b23b 7af4 933d
000000d0: c962 35bd b87e 6a3b 8930 b5bd 960a 2fbe
000000e0: 9c10 dcbd a0b8 4cbd f50c b33d df44 b8bd
000000f0: 707f f5bd 4cd2 14be 391f 083e b90d 713d
00000100: d13a a2bd 67d1 83bd 9577 b1bd fd35 113d
00000110: 319d 19be 94b3 71bd 4957 39bd a9ec 15be
00000120: 486b 02be 9118 0d3d d3b7 d83d 1643 78bc
00000130: 1094 a33d 78e4 a6bd 2500 a13d ee01 ae3d
00000140: 1afe aabd 9344 bd3d e5bd d2bd 937d 88bc
00000150: fa09 b13d 3633 063e 7fdc a93d e9b1 063d
00000160: 1f5b ae3d d1f8 be3d 8e35 a53d b668 f3bc
00000170: 1701 703d a3a2 a43c 0f16 453e e178 cb3d
00000180: 76ac 113e c7c9 09be 6aa1 d13b 63cc 513d
00000190: bb01 463e 15e9 3c3d 82f0 18be 6bd6 433e
000001a0: 8581 efbd 7ff4 27be 4111 85bd 6619 19be
000001b0: 2c01 22be d718 acbd 7fb5 33be 35a3 e73c
000001c0: 1f6e 45be 8695 e03b 760a 98bc 0994 7abd
000001d0: 7329 993d 676c 0b3e 27e2 b33d 32e4 d0bd
000001e0: 74e4 b43d 8fe3 02bd 67e6 f1bd 102f d0bd
000001f0: 5d94 4abe 9f60 d03c 10f8 22be 88a1 32be
00000200: 8920 453d 1cda 013e 8f4c 353e d946 363e
00000210: d767 b9bd 6b26 26be d1b4 f43d 80d5 f0bb
00000220: 47e3 183e 5851 d43d a79f 163d ccbd 19be
00000230: f320 05be 0c62 913b e42d 1fbd b726 94bc
00000240: 2efb e73d 3c95 e8bd 7e36 07be 05c6 20be
00000250: fdeb a83d 56fb b93d f448 a1bd 79c2 213e
00000260: c14f 83bd 186d 073e 395e 5fbd 13cf 5c3d
00000270: 47b6 4bbd a5ad 09be afbf e53d 5e3e 253e
00000280: 99bc 84bd ab16 17bd d403 ebbc cdd2 613d
00000290: 48dd ab3d 2555 b73d 267e 1ebe e81a 373e
000002a0: 6d97 013e 5e13 49be 6c63 52bd 69c3 03be
000002b0: 4b88 23be 10f1 cb3d cba2 1cbe dde1 c2bd
000002c0: 9647 07be be4e 14be 286a 5b3d 3268 ae3c
000002d0: 8cec 94bd fd80 32be 5a96 29be 6e3c 00be
000002e0: ac10 0dbe 3a17 0bbe f48b 84bd fb42 1bbe
000002f0: fcfe 21bc 6e40 0e3b c8d1 923d 256c e9bc
00000300: c57f 17be 719f 75bd 76fa 4ebd 23ae 0bbd
00000310: e79a f53c 4995 cc3d 7b4c 0dbc 355c b23d
00000320: 4c41 8d3d 6551 263e d8af 8d3d 0fd5 c7bd
00000330: 5b3c 25be be01 953d 4dc3 4abd a5aa d13c
00000340: e6fc 263e 4ff6 06be 6426 363e 5e3a 983d
00000350: dfdb 7bbd cf75 ffbd 9889 0a3e 82c5 39bc
00000360: c676 a9bc 40d1 33be 7c72 9bbb 87c0 b83c
00000370: 0b0f 1dbe b54c 933d ac3a 0cbe 5da9 a6bd
00000380: 6690 8fbd beb8 8e3d d4b3 473d 4fc2 f7bd
00000390: 5615 c4bc 743f fd3d 133f 1fbd 3a30 0d3e
000003a0: d54b d73c 81f9 003e e893 b33c 9610 2d3e
000003b0: b0ec e6bc 505d 09be cc39 32be 6c97 bebd
000003c0: f6ba bcbd 9145 973d b9c5 32bc 652f e4bc
000003d0: d18f 1d3e 0daa 05be 7f96 cdbc 79ac 983c
000003e0: 8fba 2ebc 4771 023d 903c b5bd 8def a23c
000003f0: 1940 1c3e 0e3a 373e a832 113e 058c fcbc
0.12637345 0.15059784 -0.101446845 -0.18038957 0.1490804 0.101035774 -0.0007693126 -0.030060519
0.11362499 -0.061812982 -0.039948836 -0.18988574 0.047824338 -0.0056269015 -0.054402597 -0.15185292
0.19713798 -0.07288022 -0.1797512 0.0066316877 0.032299746 0.13965856 0.16636224 -0.051039774
-0.03750708 0.11593943 0.08961933 -0.09163723 -0.110071205 0.08253229 0.026128167 0.060142927
-0.15626468 0.011313928 -0.1001404 0.17537764 0.16878912 -0.16913567 -0.17303924 0.046820715
0.1191931 -0.04460469 -0.12916006 0.07990668 -0.051494505 0.12073042 -0.11318841 -0.14372842
-0.12300096 -0.016882332 0.0054365452 0.072243646 -0.044283662 0.0035781097 -0.08847148 -0.17093882
-0.107453555 -0.04998076 0.08742706 -0.08997511 -0.119871974 -0.14533347 0.1329316 0.058850978
-0.079213746 -0.06436425 -0.086653866 0.035451878 -0.1500137 -0.05900915 -0.045249257 -0.1464106
-0.12736237 0.034447256 0.10581937 -0.015152713 0.07987225 -0.08149046 0.07861356 0.08496462
-0.08349247 0.09241595 -0.10290126 -0.016661441 0.08644481 0.13105473 0.082940094 0.032884512
0.08513474 0.09324802 0.08066855 -0.029713016 0.05859479 0.020097082 0.19246696 0.09935165
0.14225945 -0.13455878 0.006397416 0.05122031 0.19336598 0.04612072 -0.14935496 0.19124763
-0.11694626 -0.16401862 -0.064974315 -0.14951095 -0.1582076 -0.08403175 -0.17549704 0.028276065
-0.19280289 0.006853762 -0.018559676 -0.061176334 0.07478609 0.13615571 0.087833695 -0.10199775
0.088326365 -0.031955298 -0.11811524 -0.101652265 -0.19783159 0.025436698 -0.15914941 -0.17444432
0.04812673 0.12680858 0.17704986 0.17800464 -0.09053009 -0.16225593 0.119485505 -0.00734967
0.1493045 0.103670776 0.03677335 -0.15013808 -0.1300085 0.004436737 -0.038862124 -0.018084867
0.113272056 -0.11356589 -0.13204381 -0.15700538 0.08248136 0.09081142 -0.07875243 0.15796842
-0.06411696 0.1322521 -0.054533217 0.05390842 -0.04973438 -0.13445146 0.11218201 0.16137072
-0.06481285 -0.036886852 -0.028688349 0.055132676 0.083918154 0.08951787 -0.1547781 0.17881358
0.1265542 -0.19636294 -0.051364347 -0.12867512 -0.1596996 0.099580884 -0.15296476 -0.09515736
-0.13210902 -0.14483163 0.053568035 0.021289919 -0.0727168 -0.17432018 -0.16561261 -0.12523052
-0.13775891 -0.13583079 -0.064720064 -0.1516227 -0.009887453 0.0021705884 0.07168919 -0.02849395
-0.14794834 -0.05996651 -0.050531827 -0.034101617 0.02998109 0.099894114 -0.008624191 0.08708993
0.0689722 0.16241987 0.06918305 -0.097574346 -0.16136305 0.07275723 -0.04950266 0.025594065
0.1630741 -0.13179897 0.17788082 0.07433008 -0.061488982 -0.12473642 0.1352905 -0.011338593
-0.020686518 -0.17560291 -0.004743872 0.022552742 -0.1533777 0.07192365 -0.13694257 -0.08137772
-0.07009964 0.069688305 0.04875548 -0.12097608 -0.023935955 0.12365618 -0.03887851 0.13787928
0.026281277 0.12595178 0.021921113 0.16900858 -0.028189033 -0.13414502 -0.1740486 -0.09306225
-0.092153475 0.073863156 -0.010911399 -0.02785463 0.15386893 -0.1305315 -0.025096176 0.018636929
-0.010664596 0.03184631 -0.08849442 0.019889617 0.15258826 0.1789324 0.1417948 -0.030828485

encoder.0.bias f4 [16]
00000000: 3430 1abe 866a 1c3e 897a 6cbd b858 c2bd
00000010: 0c18 01be e890 8d3c 55b3 cc3d 3d0e fa3b
00000020: abde 17be ce76 133e 0d4f e9bd e089 1b3b
00000030: a939 a93d 4aa5 db3d 77ec 3cbe 52e4 26be
-0.1505745 0.1527501 -0.057734046 -0.09489578 -0.1260683 0.01728101 0.09995142 0.007631092
-0.14831035 0.14400789 -0.11392031 0.0023733303 0.08262951 0.10724886 -0.18449579 -0.16298035

encoder.1.weight f4 [16]
00000000: 2387 803f d308 7e3f 25fe 7d3f e412 813f
00000010: ad34 7d3f 6ffe 7e3f 8880 7b3f 2fa9 803f
00000020: 6308 7f3f ea9f 813f 40bb 803f 9747 7e3f
00000030: af40 803f 5f50 813f 9216 7f3f ced2 803f
1.004124 0.99232215 0.9921592 1.008389 0.989085 0.99606985 0.98243 1.0051631
0.9962217 1.0126927 1.0057144 0.9932799 1.001974 1.0102652 0.99643815 1.0064332

encoder.1.bias f4 [16]
00000000: 887a 093c 141c 88bc 41d1 d2bc df7c ea3b
00000010: 1df9 0c3b aebb 903c 1d93 c0bb eded 19ba
00000020: 6016 c8bb 2658 90bb 858e 8f3c 2a5e 953b
00000030: 30be c0bb 822a dd3a 7c98 803b 5073 c939
0.00839103 -0.016614951 -0.025734546 0.007155999 0.0021510788 0.017667618 -0.0058769123 -0.00058719405
-0.006106183 -0.0044050394 0.017524013 0.0045583444 -0.005882047 0.001687363 0.0039244276 0.00038423622

encoder.1.running_mean f4 [16]
00000000: e30f d33d d7d4 89be 595c 6abf 9895 0b3f
00000010: f20d 3fbf 315a 7abc ac99 9ebf dbfd 783e
00000020: f20a 0dbf 4cde dc3e 9922 cd3e 7529 81be
00000030: 0c45 95be 86c0 d13c ce1f 8bbf 1802 b5be
0.103057645 -0.26920196 -0.9154716 0.54525137 -0.74630654 -0.015280292 -1.2390647 0.24315588
-0.55094826 0.4313835 0.40065458 -0.25226942 -0.2915424 0.025604498 -1.0869081 -0.3535316

encoder.1.running_var f4 [16]
00000000: fc81 fd3b 2b57 703c 5949 343d 5e8b d43c
00000010: ee69 d23c 3f60 dc3a c9f4 fe3d 99c1 d83b
00000020: 8e39 1f3c 6bc3 ed3b 3b58 933c 768e 2e3c
00000030: 8e7d 333c 02f7 823b 2aff 4c3d 94a4 143c
0.0077364426 0.01466922 0.044015262 0.025945362 0.025685277 0.0016813352 0.12449033 0.0066148755
0.009718312 0.0072559617 0.017986408 0.0106540825 0.010955228 0.003996731 0.05004803 0.009072442

encoder.3.weight f4 [32, 16, 3, 3]
00000000: c198 a23a 1382 34bd 14b8 993d 2eac c63c
00000010: c83e 2ebd 070a 56bd 8c52 973d 55f3 15bd
00000020: 90d1 48bd c4f5 a63d 050d 11bd 5fa0 273d
00000030: 34a5 063d d607 8a3d 5524 bc3c fa8a 323d
00000040: 4efb 853d d6a5 82bc fb10 823c c8d5 76bd
00000050: c608 54bc a0eb 91bd aa43 6d3c d94e 59bc
00000060: 431d 913d 775e 4c3d 4214 313d e124 91bc
00000070: 8058 7f3d 13d2 1e3a 25be b2bd 0396 58bd
00000080: 6bac 7b3d bc2e 80bc dc29 ff3c d02c caba
00000090: 7508 7bbd 0bc4 a53d aeeb 05bd bc1e 8dbc
000000a0: db95 ebbc 1aa6 32bd 62f6 65bd cad4 93bd
000000b0: 3941 b2bc 7b58 1abd 6884 c73c 9254 023d
000000c0: 2400 0d3c e9c4 423c 34ed 3b3d 002a bbbd
000000d0: e675 b6bd e0e1 5cbd 19e4 a43d dd9c ad3c
000000e0: fd8b 25bd ec33 9b3c 33ae dfbc a299 933c
000000f0: 5a3c aebc 7d5b e8bc eca5 17bd 5180 583a
00000100: 7049 63bd b69f 473d 009c 3abd da2e 013c
00000110: d8aa 3cbd 3458 b6bd 273e 42bd 6c52 35bd
00000120: e5c9 093d 0224 38bd 111e 63bd 55f4 e53c
00000130: 530b a43d 8a62 8e3d 6865 843d e4ca 003d
00000140: 9b93 8fbd 210d 41bd 84dc 1a3d 169d ca3c
00000150: 887a 1abd 0eed 22bd 933c 173d 23a5 8bbd
00000160: 548a c9bd d64b 48bd 56d8 943d 98fb 8e3d
00000170: 4995 00bd 2d59 053d e326 1dbd 6c8f 653d
00000180: f552 6f3c 6c2b f73b d9a6 a6bd 64ab 203d
00000190: abdd 12bd 5526 f33b d918 cbbc 06d8 a4bb
000001a0: 8db1 033d 7436 1cbd 7d34 673d 21d8 573d
000001b0: 1969 d43c 425c 91bd b7c9 573d f914 8b3d
000001c0: 1e7a 50bd 37cd ecbc 0600 c3bc 07ed ebb9
000001d0: 4fb3 adbd c874 b83c 4163 5e3c d7c8 d4bd
000001e0: 178e 89bd 061b 833c 0672 3b3d 1821 733d
000001f0: 9864 dbbc 9676 71bc d2fa a03d 70e2 e23b
00000200: 5a01 853d 8d17 8b3d 6726 07bd d0f6 4dbc
00000210: 92ee 46bd 84c0 fbbc 30cb 933d 37f3 dd3c
00000220: 1e90 c23c be27 293d 7bd2 223d 46dd afbd
00000230: c985 133d c156 8abd cea9 953c 9d00 b53d
00000240: 0aae bc3c ac18 933c 57ab 6cbd 1ed1 a33d
00000250: b34e 2fbd 47ec 61bb 06dd 41bd c2fb 273b
00000260: 5956 803d 8032 67bd 1037 54bd 54ca a6bc
00000270: 0aaf c33d 1d4c 6cbc 724b 943d 1aa3 163d
00000280: a3d7 5f3b 449c 983c 7310 e83c 4117 843d
00000290: 789f 02bc a062 8bb9 2cd3 243d b96c 713a
000002a0: 1555 84bd 5af2 45bb 6188 4abd 92f9 83bd
000002b0: 50a3 b23d aacb 59bd ee7a bf3d 32c6 ed3b
000002c0: 8954 783d 2889 41bb ed00 8d3d 8b17 0ebb
000002d0: bf81 723c a780 4a3b 567d d93c 3e84 523d
000002e0: a088 38bc fbc4 363d df2c 853d 381d 45bc
000002f0: b30a a33d cbe1 3f3d d26a b33c 5e94 8ebd
00000300: f9e9 7f3d 1776 e2bc cd99 a5bd eb83 1bbd
00000310: 3f3d 753d 7c74 ba3c e962 bebb 3355 bd3c
00000320: de9a 2b3c 1c99 8b3d 6c26 a13d 3255 083d
00000330: 6523 943d 42a7 20bd 9c3c f9bc f058 933d
00000340: 20e0 0b3b 92e6 b6bc 0575 cfbc 1308 24bd
00000350: 0985 16bb a684 79bd db65 24bd 8dd6 ac3d
00000360: 78bd 743d ffe5 3d3d 7cf0 9e3d 7d8e 31bd
00000370: f02f 9a3d 56e7 00bd 19af 83bd 0363 30bd
00000380: f914 073d 00e5 90bc 2b0b 4cbd 0f96 60bd
00000390: 1ec6 4c3d 979f b0bd e087 af3d 043d 713d
000003a0: 7489 cabc 4446 bebc 8c9a 75bd 3717 8a3d
000003b0: 942c b03b d583 6cba fcbf 8d3d c46d 6d3d
000003c0: d064 31bd 5044 983c 2442 5bbd 9006 12bd
000003d0: 5791 1abd ba56 31bd c19c 553d 6f1f c73b
000003e0: fef6 8c3c ae9a a03d eb9a 4f3d bc30 9e3a
000003f0: d106 b3bc 1d9a 873d 2fe7 8c3d d7bd 0b3d
0.0012405143 -0.04406936 0.07505813 0.024252024 -0.04254034 -0.052255657 0.073887914 -0.036609013
-0.04902798 0.08152345 -0.035412807 0.040924426 0.032872394 0.06739776 0.022966543 0.04358957
0.06542073 -0.015948217 0.015877238 -0.06026247 -0.012941545 -0.0712502 0.014481464 -0.013263428
0.07085659 0.049894776 0.04323221 -0.01771778 0.06234026 0.0006058525 -0.087276734 -0.052877437
0.061443727 -0.015647285 0.03114789 -0.0015424732 -0.061287362 0.08094033 -0.032695465 -0.01722657
-0.02875798 -0.043615438 -0.056143172 -0.07218321 -0.021759616 -0.037682038 0.024355128 0.031818934
0.008605991 0.011887767 0.04588051 -0.0913887 -0.08909206 -0.05392635 0.08051319 0.021192962
-0.040416706 0.018945657 -0.027304744 0.018017594 -0.021269012 -0.028363938 -0.03702347 0.0008258867
-0.055489957 0.048736297 -0.04555893 0.007884705 -0.046061367 -0.08903542 -0.047422554 -0.044268057
0.033639807 -0.044956215 -0.055448595 0.028070608 0.080099724 0.069523886 0.06464654 0.03144349
-0.070105754 -0.04713166 0.037807956 0.024733108 -0.03771451 -0.039776854 0.036923002 -0.06818607
-0.09840837 -0.048900448 0.07267825 0.069815814 -0.03139237 0.032555748 -0.038367163 0.05604498
0.014607181 0.007543018 -0.081372924 0.03922595 -0.03585593 0.007420341 -0.024792122 -0.005030635
0.032151747 -0.038137868 0.05644654 0.05269635 0.02592902 -0.07097675 0.052682605 0.067911096
-0.05089771 -0.028906448 -0.023803722 -0.00044999292 -0.08481466 0.022516623 0.013573469 -0.1038987
-0.067165546 0.016004097 0.045763038 0.059357733 -0.026781365 -0.014737746 0.0786034 0.006923966
0.064943984 0.06791601 -0.032995608 -0.012571052 -0.048567362 -0.030731447 0.07216489 0.027093513
0.023750361 0.041297667 0.03975151 -0.085871264 0.03601626 -0.06754828 0.018269446 0.088380076
0.023032207 0.0179561 -0.05778059 0.0799887 -0.042799663 -0.0034473108 -0.047329925 0.0025632237
0.062664695 -0.056444645 -0.051810324 -0.02036015 0.095548704 -0.014422444 0.072409526 0.03677664
0.003415563 0.0186292 0.028328156 0.06449748 -0.007972591 -0.00026585627 0.04024045 0.00092096213
-0.064615406 -0.0030204267 -0.049446467 -0.06444086 0.08722556 -0.053172745 0.09349619 0.0072562927
0.060627494 -0.0029531214 0.06884942 -0.0021681513 0.014801442 0.0030899437 0.026549023 0.051395647
-0.011263043 0.04462145 0.06502699 -0.012030892 0.07961025 0.046846192 0.021901522 -0.069618925
0.062478993 -0.0276442 -0.08085976 -0.037967604 0.059872862 0.022760622 -0.005810131 0.023111915
0.010473935 0.06816313 0.078686565 0.033284374 0.072333135 -0.03922201 -0.030424409 0.07194698
0.0021343306 -0.022326741 -0.025324354 -0.040046763 -0.0022967479 -0.06091752 -0.0401362 0.0843936
0.059751004 0.04636192 0.077607125 -0.043348778 0.075286746 -0.03147062 -0.064298816 -0.043063175
0.032978985 -0.01768732 -0.049815338 -0.054830607 0.049993627 -0.08624189 0.08570838 0.05889608
-0.024723746 -0.023226865 -0.05996184 0.06742709 0.005376408 -0.000902233 0.06921384 0.05796601
-0.043309033 0.018587261 -0.053529873 -0.03565079 -0.037736263 -0.0432956 0.052151445 0.006076745
0.017207619 0.07842003 0.05068485 0.0012068967 -0.021853836 0.06621192 0.06880032 0.034116592

encoder.3.bias f4 [32]
00000000: 07d0 a0bd aac2 10bd 530c 9abc f261 67bd
00000010: 7d89 84bc b210 5dbd c0d4 003b 5591 22bd
00000020: ac45 36bb 52cc 1bbd b688 383c 3e30 76bb
00000030: cbbf 2cbd 1ea5 433d 8173 bfbc e963 18bd
00000040: 74e4 7abd ab4c 4b3d 3554 853d 80b4 6a3c
00000050: 5218 a0bd bae8 a1bd 6d73 77bc 870c 923d
00000060: e410 80bd 321f 8bbd 704c 85bd 0496 8f3d
00000070: 4299 c839 e6df 213c f569 a8bc b028 503b
-0.07852178 -0.035341896 -0.018804705 -0.056489892 -0.01617884 -0.053971 0.001965806 -0.03968938
-0.0027812524 -0.038036652 0.011263063 -0.0037565376 -0.042175096 0.04776489 -0.023370506 -0.037204657
-0.061253026 0.049633663 0.06510202 0.014325261 -0.07817139 -0.07905717 -0.015103203 0.07131296
-0.06253222 -0.067930594 -0.0650872 0.07011035 0.0003826116 0.009880042 -0.020558337 0.0031762533

encoder.4.weight f4 [32]
00000000: 771e 7f3f fe0e 7b3f 1e9f 803f 8228 7e3f
00000010: 94f7 7f3f bd48 803f b401 813f 06b0 7f3f
00000020: 2169 833f 4984 7f3f c954 7e3f a796 803f
00000030: e033 7c3f fb3f 7f3f 9f22 7d3f a83b 813f
00000040: 4147 823f 7abd 813f 516e 803f 3936 813f
00000050: 856e 7c3f ae43 7d3f e2bd 7f3f 611c 803f
00000060: 8959 803f 7cf4 7d3f ec8b 7e3f 6dfe 813f
00000070: b8a9 803f 09ec 803f 88d6 813f db7c 803f
0.9965586 0.9806975 1.0048559 0.9928056 0.9998715 1.0022198 1.0078645 0.99877965
1.0266458 0.99811226 0.9934812 1.0045975 0.98516655 0.99707 0.9888095 1.0096331
1.0177995 1.0135949 1.0033666 1.0094672 0.9860614 0.98931396 0.99899113 1.000866
1.0027324 0.9920118 0.99432254 1.015577 1.0051794 1.0072032 1.0143595 1.0038103

encoder.4.bias f4 [32]
00000000: 87ac 1cbc a661 09bd 9be3 ba3b 5159 5b3c
00000010: c3fb 6ebb 2487 19bc cc23 9638 5a8d b93c
00000020: a0e1 923b 2550 a53b 808d 2c3c e0cd fbb9
00000030: 54b5 8fbb 222f 1e3c aaae 3fbc 1422 e73c
00000040: da7a 25bc 4466 a4bb a1f7 ea3b 23f2 8b3c
00000050: 3378 123b 6d44 f9bb c83f a3bb 9796 fbb9
00000060: f8d7 9b3b cbbb 25bc 0d13 063c 6b4e f43a
00000070: 598c e03b b2fd 8e3c 9107 7eba 4b92 d83b
-0.009562618 -0.03354039 0.005703402 0.013387994 -0.003646598 -0.009370599 7.159225e-05 0.02265041
0.004482463 0.0050449544 0.010531783 -0.0004802784 -0.0043856297 0.009654792 -0.011699358 0.028214492
-0.010100091 -0.005017074 0.007170633 0.017083233 0.0022349476 -0.007607034 -0.0049819686 -0.0004798665
0.00475597 -0.010115574 0.008183253 0.0018639093 0.0068526682 0.017454956 -0.00096904585 0.0066092364

encoder.4.running_mean f4 [32]
00000000: f783 37be cf38 9b3e d38d 07be 8bc2 853e
00000010: a94e ff3d c648 603e b230 76bd 50d3 1dbe
00000020: 3383 1e3e e4f2 c23c bfd2 e4bd 5909 723d
00000030: a115 733e 2e56 81be 27e1 53be 44eb a4be
00000040: 81c2 4fbe e961 2f3e 4574 14bf 92ba 2f3d
00000050: dc68 5dbe cba0 273e 28b4 d13c 5441 5a3d
00000060: a0e5 7d3e d0d8 28be 3e57 d8be b4e8 25be
00000070: 3530 1abe add0 673e 4ede 0fbe 388c e6bd
-0.17921434 0.3031678 -0.13237695 0.26124987 0.12466175 0.21902761 -0.060105033 -0.1541264
0.15479736 0.02379746 -0.11173009 0.059090946 0.2373872 -0.25261062 -0.20691358 -0.32210743
-0.20289041 0.17127194 -0.57989913 0.042902537 -0.21622032 0.16369931 0.0255986 0.053284958
0.24794626 -0.16488957 -0.4225406 -0.1620205 -0.15057452 0.22638197 -0.14049646 -0.11257213

encoder.4.running_var f4 [32]
00000000: af1b 293e 1dd0 f53e e187 353e c7d0 2a3f
00000010: 81c0 eb3e b0bb b33d a3c4 403e 2e0b 4e3e
00000020: 2a12 153e 9c48 b43e 8b95 983e dafa 9e3e
00000030: 62c4 973e bee2 993d f625 e33d fa06 443f
00000040: 8a64 573d bca6 123e 5913 933f 238f 273e
00000050: f46d 223f 0b47 863f 974f 243f e05f f73d
00000060: ec0d 193f ba56 db3d 4fde 043f 38a2 4b3d
00000070: a3ce 703e 4e15 223e 191b 773d e9da 4e3e
0.16514467 0.4801034 0.17727615 0.6672482 0.46045306 0.08776033 0.18825011 0.20121452
0.1455771 0.35211647 0.29801592 0.3105076 0.29642016 0.07513951 0.11091225 0.76573145
0.052586116 0.14321417 1.149028 0.16363196 0.63449025 1.049043 0.64183944 0.120788336
0.5978687 0.10709901 0.51901716 0.04971525 0.23516326 0.1582844 0.060328577 0.20200695

encoder.6.weight f4 [64, 32, 3, 3]
00000000: 30bb 0a3d e2b2 c6bc 3077 83bd a337 0b3d
00000010: 2720 d13b 50e9 3f3d 5d48 b03c 4bb7 f7bb
00000020: a3a4 103d 2333 ffba 6545 31bd a6c4 febc
00000030: 0afa e1bb 9307 763c f5ff 173d f091 94bd
00000040: f967 77bd 820a ccbb fdb0 d53c e71d 73bc
00000050: 07ba 3b3d 8a86 39bd 4b19 deba 9be8 1dbd
00000060: 7816 17bd f72b fbbc d963 8ebd 8c70 a33a
00000070: 7fe9 9fbc 6e2a 383c fccf 54bc 4742 3c3d
00000080: 1749 8f3c 4cc3 4fbc f790 8ebc 5b55 1fbc
00000090: 1010 563d 334a e73b fea9 cb3c ba7b 3bbd
000000a0: 3c56 08bd ac5c 03bd f822 5bbd f695 b2bc
000000b0: e19b 89bc 1fff 923c 31ee 18bc d647 32bd
000000c0: 6e36 88bc 7027 04bd 1544 95bc 8e4a 0fbd
000000d0: 5d33 01bb 2527 643c 0d06 553d 3e5b f63b
000000e0: 9845 18bc 4fc7 f2bc fb14 af3c c659 873c
000000f0: c184 d6bc 37c2 723d 4f90 8dbc f77b 66bd
00000100: 7f3f 453d 8c0b 19bd f707 063d 661c 3b3d
00000110: 0388 343d 0156 c8bb f01e 12bd 209d 41bd
00000120: a155 4d3d f0ef 323d cc46 81ba 835c 68bd
00000130: e399 c5bc 8961 153d 3a83 db3a 01fa 59bd
00000140: 94de 5ebd b8dc a2bc 986c 353c e454 1abd
00000150: 1b37 e6bb 3dc2 95b9 9193 383c ac11 31bc
00000160: 83ba 873c 0926 053d 660e 2d3d 6a2c 55bd
00000170: 3654 babc b6b8 083a cb45 3e3c 531f 8ebc
00000180: c19e c53c 4677 523c 7fb6 37bd 5ce4 2a3d
00000190: 884d e03c 50aa 72bc b1b6 f83c f4bc 1ebd
000001a0: dc01 09bd b861 9c3c ede8 483d 49d1 47bb
000001b0: b1e0 853d af3d 54bd 58bf f0b6 b575 023d
000001c0: 6267 203c b384 87bc 6e3e d6bc 4a80 d63c
000001d0: ee29 3abd db55 1a3d a09c c8bc 9583 debc
000001e0: 294d 8fbd ce7b a73c ab19 c53b cd29 75bd
000001f0: c54e 413d f105 df3c d8b1 4f3d 6fc9 04bd
00000200: 1bc1 a0bc 5eaa 453d aa04 d1bb 465f 38bd
00000210: be86 753d c2b1 e8bb 0824 8e3d 4f36 12ba
00000220: 74e1 3ebd 118a 03bc f0cd 233c 1730 75bc
00000230: 17b0 0fbd 408e 39bd b679 763c b454 7abd
00000240: 10db 3fbd 58b7 5dbd c1a4 7ebc fb0f 67bc
00000250: 75bd 1c3d b506 d63b 89e4 713d 854d 9d3c
00000260: 1d4b 40bb 628a 5bbd ac83 aa3c ffd7 1c3d
00000270: 476e 1d3d c612 083d 7b71 b93c b04f 0e3d
00000280: d243 683d 23fe 7b3d 2da6 1bbd 8008 b33a
00000290: d81e 0bbd 97b6 29bc 1ec1 45bd 0473 423d
000002a0: f13b 373d 0ab3 213d 4e53 8fbc 2cab 76bd
000002b0: 7a07 e73a 7c89 a33c 626c a83c 66ef 8abd
000002c0: 0cab b63c 106c 9737 f894 ae3c f22c 42bb
000002d0: 9160 cfbc 807d 5fbd 0d54 043c fee8 213d
000002e0: 0929 59bd db21 093d 5f63 33bd 9503 403b
000002f0: 5d88 05bd cb07 34bd 4294 1ebd bee5 6dbd
00000300: 051b 4abd 1d39 ae3c a039 84bd 5dff 833c
00000310: 5616 483d 4cc3 5f3d 0f6e cf3a bad9 efbb
00000320: cad2 e5bc a648 78bc 0dbb 10bc 0217 4b3d
00000330: ee9b 4bbd aa2e a03b 98ce 3dbc 21e8 f4bc
00000340: 0448 253d 8393 c13c b12b 443b d285 713c
00000350: 7a88 263d 24b5 0c3d 7802 3abd db64 223d
00000360: 3e75 02ba d4f0 02bd 3cb9 593d 817f 45bd
00000370: 59de ebbc a1f1 193d 0bd9 25bc 6a32 543c
00000380: ed9a e23c 020a 1ebd 76bc 2e3d 5907 cc3b
00000390: 0c4f 203d b387 df3b 7e00 ffbc c5af c33c
000003a0: 3815 58bd b271 df3c f767 2cbc 9edc 283d
000003b0: 1cbc 403d 64ea 68bc e1a1 ca3c 3830 1f3d
000003c0: 60ac 4ebd 1666 1c3d 9dd4 b23b 868c 32bd
000003d0: b4d0 96bb e86b 12bd ac29 f43c 0d36 493d
000003e0: 5558 da3c 6ba2 533d 5ca6 aa3a cd03 54bc
000003f0: 0559 11bc b244 98bd 4982 df3c 0108 793c
0.033869922 -0.02425522 -0.064192176 0.033988606 0.0063820067 0.046853364 0.02151888 -0.007559692
0.03531326 -0.0019470196 -0.04327907 -0.031099629 -0.006896262 0.015016454 0.037109334 -0.07254398
-0.06040189 -0.0062268386 0.026085371 -0.014838672 0.045831706 -0.045294322 -0.0016944794 -0.038551908
-0.036886662 -0.030660613 -0.06952638 0.0012469455 -0.01952052 0.011240585 -0.01298904 0.045961645
0.017490907 -0.01268084 -0.017403109 -0.00972494 0.052261412 0.007058406 0.024861332 -0.04577229
-0.033285365 -0.0320708 -0.053500146 -0.021800023 -0.016797962 0.017943917 -0.009334133 -0.04352554
-0.016627517 -0.032264173 -0.01822094 -0.03498321 -0.0019714453 0.013925348 0.052007724 0.007518201
-0.009293936 -0.029636053 0.021372309 0.0165223 -0.026186349 0.05926725 -0.017280726 -0.056270566
0.048156258 -0.037364528 0.03272244 0.04568138 0.044075023 -0.006113768 -0.035674036 -0.047268987
0.05013049 0.043685853 -0.0009863018 -0.05672885 -0.02412123 0.03646997 0.0016747483 -0.053216938
-0.054411486 -0.019880638 0.011073254 -0.037678614 -0.007025612 -0.00028564213 0.011265651 -0.010807436
0.016568428 0.032506976 0.04225006 -0.05204431 -0.022745233 0.00052155124 0.01161332 -0.01734892
0.024123551 0.01284582 -0.044851776 0.041721687 0.02738072 -0.0148111135 0.030360552 -0.03875442
-0.03344904 0.019089565 0.04905026 -0.0030489734 0.06536997 -0.05181664 -7.1748327e-06 0.031850535
0.009790273 -0.016542768 -0.026152816 0.02618422 -0.045450144 0.037679534 -0.024488747 -0.027162353
-0.06997139 0.020444777 0.0060150228 -0.059854317 0.04719426 0.027224513 0.050706714 -0.032418665
-0.01962333 0.048258178 -0.00637873 -0.045012735 0.059942953 -0.0071012685 0.06940466 -0.00055775506
-0.046601728 -0.008028523 0.00999783 -0.014965079 -0.03508004 -0.045301676 0.015043667 -0.061115935
-0.046839774 -0.05412993 -0.01554221 -0.014102931 0.038266618 0.0065315613 0.05905584 0.019202003
-0.0029341646 -0.05359877 0.02081474 0.038291927 0.038435247 0.03322103 0.02263712 0.034743965
0.056705303 0.06152166 -0.038000274 0.0013659149 -0.03396496 -0.010358474 -0.048279874 0.04747297
0.0447349 0.039477386 -0.017495777 -0.060221836 0.001762613 0.019963019 0.020559493 -0.06783943
0.022298358 1.8050923e-05 0.021311268 -0.002962884 -0.025314601 -0.054563046 0.00807668 0.03952884
-0.05301765 0.033479553 -0.04379594 0.002929901 -0.03260075 -0.043952744 -0.03871561 -0.058080427
-0.049342174 0.021267468 -0.064563036 0.016112978 0.048849426 0.05462961 0.0015825647 -0.007319656
-0.028054614 -0.0151540395 -0.008833659 0.04958249 -0.049709253 0.0048883753 -0.0115849 -0.029895844
0.040351883 0.02362991 0.0029933269 0.014741378 0.040657498 0.034352437 -0.04541251 0.039646965
-0.0004976577 -0.031967953 0.05315517 -0.0482173 -0.028792547 0.03758395 -0.010122548 0.012951473
0.027661765 -0.038583763 0.0426602 0.006226462 0.039137885 0.0068215965 -0.031128164 0.023887524
-0.05275461 0.027275894 -0.010522834 0.041226022 0.047054395 -0.014216039 0.024735393 0.038864344
-0.05045736 0.038183294 0.0054574744 -0.043591045 -0.004602516 -0.03574744 0.029805027 0.049123812
0.026653448 0.051668566 0.001301955 -0.012940359 -0.008871322 -0.074349776 0.027283804 0.015199662

encoder.6.bias f4 [64]
00000000: 3b9f 153d f7f6 49bd ed71 14bd 6837 bbbb
00000010: 9d6d a23c 6247 acbb 4ed9 42bd 101c 2ebd
00000020: 4c77 69bd 2d06 89bc 3c1a 24bd 9bc9 573d
00000030: 31a1 c2bc 1043 113c 3f10 eabc 8080 a9bc
00000040: 468f 173d fadd 9fbb 00c2 2fbd 7e18 3cbb
00000050: 2920 5abd fdc8 793c 1af5 1ebd e4c1 803c
00000060: fbe8 503d a5e3 8cbc 67da 05bd 168b 4a3d
00000070: 1755 5dbb 309a 9cbc da30 103d 3046 cbbc
00000080: 8bb8 01bc 9e0b d8bc 4f2a adbc 64c5 233c
00000090: 47c3 f4bc 2a55 433d c287 dd3c cdf5 e13c
000000a0: f4b6 8abc 9479 03bd 42f8 bdbc b998 aa3c
000000b0: d00b f73c 9678 19bd f669 66bd 3e26 f63c
000000c0: d362 683d b38a debc be11 8fbc c707 10bd
000000d0: 0217 223d e835 af3c 2bd6 12bc d23d ff3c
000000e0: a8e5 303c 1a14 663d 4829 0dbb a528 c5bc
000000f0: f1cf 93ba 3355 4f3d 63a8 593a 6346 fabc
0.036528807 -0.04930779 -0.03624146 -0.005713392 0.019827658 -0.005257533 -0.04757052 -0.04250723
-0.056998536 -0.016726578 -0.04006408 0.0526825 -0.023758503 0.008866087 -0.0285722 -0.020691156
0.03700187 -0.0048787566 -0.042909622 -0.0028701122 -0.053253327 0.015245673 -0.038807966 0.015717454
0.051003437 -0.017198393 -0.032678988 0.04944905 -0.0033772641 -0.019116491 0.03520284 -0.024813741
-0.007917534 -0.026372727 -0.021138338 0.009995792 -0.029878272 0.04768864 0.027042273 0.027583027
-0.016932942 -0.032098368 -0.023189668 0.020824777 0.030157 -0.037468515 -0.056253396 0.030047532
0.05673487 -0.027165746 -0.017464515 -0.035163667 0.039572723 0.02138801 -0.008962194 0.031157408
0.010796942 0.056171514 -0.0021539498 -0.024067232 -0.0011277181 0.05061836 0.00083029846 -0.030551141

encoder.7.weight f4 [64]
00000000: ec97 813f 0dc9 763f afed 803f 1f9e 813f
00000010: 43e0 7b3f e287 813f f4ed 803f 88be 7c3f
00000020: b365 7e3f cb86 7c3f 22e0 7e3f 7375 803f
00000030: cb95 7c3f 9b37 7d3f 7310 833f 0861 7d3f
00000040: f871 833f b062 813f 76e1 7c3f c7d2 7d3f
00000050: be92 813f 9465 813f 73a0 803f 5edb 7a3f
00000060: 9524 7b3f 7ca1 7e3f 10d6 833f 65f4 7d3f
00000070: 90c0 7f3f 7f34 7e3f 253e 803f 47ca 813f
00000080: 045f 7f3f 64c2 7d3f 9348 803f f2d6 7d3f
00000090: f25d 823f b66c 7c3f 24c2 793f 3562 833f
000000a0: 604f 823f 90f5 7d3f 67e0 7f3f edda 843f
000000b0: 71c3 803f a019 833f 44a5 823f db54 823f
000000c0: 0bf6 803f a37c 7a3f d18a 793f ec65 823f
000000d0: a40c 7b3f 5ee9 7f3f 4f5d 823f d210 813f
000000e0: d2bc 803f d6fd 7f3f ced6 7b3f 7a5d 813f
000000f0: 08cb 843f 4ab9 793f b239 823f c8f4 793f
1.0124488 0.9640053 1.0072535 1.012638 0.9838907 1.0119593 1.0072618 0.9872823
0.9937393 0.9864318 0.9956075 1.0035843 0.98666066 0.9891297 1.0239395 0.9897618
1.0269156 1.0108242 0.98781526 0.99149746 1.0122907 1.0109124 1.0048965 0.9799098
0.98102695 0.99465156 1.0299702 0.9920104 0.999032 0.9929885 1.0018965 1.0139855
0.9975436 0.9912474 1.0022148 0.99156106 1.018492 0.9860338 0.9756186 1.0264345
1.0180473 0.99202824 0.99951786 1.0379311 1.0059644 1.0242195 1.0206685 1.0182146
1.0075086 0.9784643 0.9747744 1.0187354 0.98066163 0.99965465 1.0184726 1.0083258
1.0057623 0.999967 0.9837464 1.0106652 1.037446 0.97548354 1.0173857 0.9763913

encoder.7.bias f4 [64]
00000000: 0d59 07bb 609a 9dba 22d9 c93c bc8b 003d
00000010: 2f59 4cbc 0375 be3b bc6e 663c c9ab 893b
00000020: 027b ab3a 7510 40bc 5b9b 00bc 369d 60bc
00000030: da44 abbb 554e 6dbc 2a5c c23c 17a8 4abc
00000040: 6c82 a23c 6106 79b9 b1c2 e8bc 44f6 c5bc
00000050: f8c3 17bc 4704 563c 2974 f43c 0c04 ffbc
00000060: eb5b dd3c e9fe 5ebc 8f3d f03b 0d57 98bc
00000070: e2fd 3abb ad3e 40bc 2035 903b 9483 0c3c
00000080: 0d9a ca39 6da9 023c 40e7 38bb 6de0 293c
00000090: 4b57 1e3c 32ad 6abc b414 03bd b1f7 7a3b
000000a0: 73c3 873c 3d58 cbbc 7ef8 feba 5b93 c13c
000000b0: a444 053c e949 b03c 4c0d a53c 0b2d 893c
000000c0: 0c4a 363c 1f4e 1cbd 1328 92bc 98e8 d83c
000000d0: b02d 19bd 52da 0cbc 02be b93c d194 98bb
000000e0: 2832 583c e175 27bc 0fc0 5bbc aba3 2f3c
000000f0: eda1 333c 9db1 77bc 7dd3 903c 0e0b dbba
-0.0020652444 -0.0012024157 0.02463967 0.03138326 -0.012472435 0.0058122887 0.014064487 0.0042013866
0.0013082924 -0.011722674 -0.00784954 -0.013709357 -0.0052267136 -0.014484008 0.023725588 -0.012369177
0.01983758 -0.00023748867 -0.028413149 -0.02416528 -0.009263031 0.013062543 0.029840546 -0.03112986
0.027021369 -0.01361058 0.007331557 -0.018596197 -0.0028532674 -0.011733693 0.0044008642 0.008576293
0.0003864322 0.007974965 -0.0028214008 0.010368449 0.009664367 -0.01432352 -0.032002166 0.0038294608
0.01657269 -0.024822349 -0.0019452719 0.023629835 0.008134041 0.021519618 0.020147942 0.016745111
0.011126053 -0.03816044 -0.017841375 0.026478097 -0.037397087 -0.0085969735 0.02267361 -0.004656412
0.013195552 -0.010220976 -0.01341249 0.010720174 0.010963899 -0.01511803 0.01767897 -0.0016711669

encoder.7.running_mean f4 [64]
00000000: 0a1c 22bd a9a2 b33d 8c9a a2be d64a a8be
00000010: dacb d53e d6de 92be 940e fcbe 76d0 a3be
00000020: 72f5 1abe 1ebc 383d e32a ab3d 0391 20bd
00000030: 9925 f43d 2665 a2bc 7cd6 b8be 817b 86bd
00000040: d452 cbbe 99cc 6b3e 0f9b 67bc 5078 0dbe
00000050: 9094 1b3e d4a8 f6be d289 0dbe 67c8 a03d
00000060: bcb7 d8bc dfff 713d 2d69 90be a7a7 eb3d
00000070: ca7e 733e d2d2 21bc 1526 05be bd07 abbe
00000080: 5e1e fa3e 163f bbbe 244a 90bd 7664 76be
00000090: 20f0 e0bd c268 ec3c 2048 393e a258 933e
000000a0: ef17 243e ea22 dcbd 3030 de3c 57e2 66bd
000000b0: 07af a1be 7ac9 18bf f2c1 f2be ef7c 34be
000000c0: b7d6 92be 237b 9a3d 1e6d 713c e623 1dbe
000000d0: b404 873d 1191 613e 3ab9 2bbf 0c8c 1b3d
000000e0: 1abe 993d a453 b63d 821f 1fbe 7536 e7be
000000f0: a25a babd e86a 98be b65e 8bbe b186 b4bd
-0.03957752 0.08771259 -0.31758535 -0.32869595 0.4175709 -0.28685635 -0.49229872 -0.3199498
-0.15132692 0.045101278 0.08357789 -0.039200794 0.11921234 -0.019823622 -0.3610114 -0.06566525
-0.3971163 0.23027267 -0.01413609 -0.13815427 0.15193391 -0.4817568 -0.13822106 0.07850724
-0.026454799 0.05908191 -0.28205243 0.115065865 0.23778835 -0.009876924 -0.13002808 -0.3340434
0.48851293 -0.36571568 -0.07045391 -0.2406176 -0.109833 0.028858546 0.1809392 0.2877856
0.16024755 -0.10748847 0.027122587 -0.0563682 -0.31578848 -0.5968243 -0.47413594 -0.17625783
-0.2867944 0.07543018 0.014735488 -0.15345725 0.06592694 0.22027995 -0.6707951 0.037975356
0.07506962 0.08902672 -0.15539363 -0.45158735 -0.09099318 -0.29769063 -0.27220696 -0.08814753

encoder.7.running_var f4 [64]
00000000: 2e35 e63d ea8a b53e a87d a03f 0206 b13e
00000010: 1303 843e eaa4 873e 551b ba3f 0986 b53e
00000020: b184 303e 22dd 0a3e aee6 933e 9653 813e
00000030: 59e9 413f f783 2a3e 48a9 cf3e 1d53 983e
00000040: 901c 353e fea6 433e 1138 553e 9f1c 2e3f
00000050: 14ad 5e3e 139f 393f dd45 493e 16f2 cb3e
00000060: f3d6 d83e 736a 9d3e 8d85 313e 501c ae3e
00000070: 2b99 b63e c769 bc3e 25ac 1f3f e5dd 593e
00000080: 347e b13f 3bec 613f 61c4 f43e 88dc 2e3f
00000090: d76f 963e 31da 823e c65d e53e 1f51 7d3e
000000a0: 2d87 1b3f 3c1b 833e 8b58 993e c7b3 4b3e
000000b0: b696 673e 2969 f43e 72e9 f13e a338 eb3e
000000c0: 8264 6e3f e42a 8d3e 8140 e73e 0ba4 bc3e
000000d0: ebf3 a83e 2a40 573e a410 503f 280b a63d
000000e0: efdf f93e 73b5 fe3e d525 443e e58a 093f
000000f0: 38f3 173e 4fd2 a33e f0a9 163f 922c be3e
0.11240612 0.35457546 1.2538347 0.34574896 0.25783595 0.26493007 1.4539591 0.35453823
0.17238118 0.13560918 0.28886932 0.25259084 0.75746685 0.16651903 0.4055884 0.2975091
0.17686677 0.19106671 0.20822169 0.6801242 0.21745712 0.72508353 0.19655557 0.39833134
0.42351493 0.30745277 0.17336102 0.34005976 0.35663733 0.36799452 0.62372047 0.21276052
1.3866639 0.88251084 0.47806075 0.68305254 0.29382202 0.25557092 0.44798106 0.24737976
0.60753137 0.25606716 0.29950365 0.19892798 0.22616085 0.4773648 0.47248417 0.45941648
0.9312211 0.27571785 0.451664 0.36843905 0.32998595 0.2102057 0.8127539 0.08107597
0.4880366 0.4974781 0.19155057 0.5372756 0.14838874 0.3199639 0.58853054 0.3714338

decoder.0.weight f4 [64, 32, 4, 4]
00000000: 0b6f 2d3d 011f 4d3d 8b3f 0ebd 2a87 0abd
00000010: 09f2 563d 5999 a33b 666c 1f3d f892 01bc
00000020: d884 d93c ef18 bebb fbb5 813d e6b1 04bd
00000030: 0255 313c 03dd ae3c 39e0 32bd 7727 29bc
00000040: c83f 093d 8717 c8bb 0447 de3b dfff 00ba
00000050: 025f 37bd 3235 fd3b ecae e73b b0ec 02bb
00000060: d01b 40bd b192 abbc 0892 713d d816 043b
00000070: 94ac 923c baca 49bc 2656 e6bc 1620 4bbd
00000080: 92c9 a43c ffdb f1ba 1184 033d 0879 90bd
00000090: c76d 323d a4fd 603d 2e84 69bd 4520 d3bc
000000a0: a9f3 4ebd 64b6 b4bb b984 7eb9 410e 083c
000000b0: 3a8e 21bc c667 343d 3d27 2ebb 60a5 aebd
000000c0: e2a3 04bc 8a64 cd3c 730f 0b3c 46fc c7bb
000000d0: 3ee9 11bd 783b fb3c 736e 5bbc 3c18 39bb
000000e0: 159b 3abd 13d8 32bd e890 0f3d 518a 49bb
000000f0: d2b3 1cbc d73a 96bd 6b15 12bd a5de d23b
00000100: 078f e7bc ce32 4fbc 452f f2bc 218a b8bc
00000110: 1095 e4bb 370d 683d 9a20 073a aaa0 afbc
00000120: eb4b 1abd 37dc 9b3c 3936 293d 2c6f 8abd
00000130: a90a 94bd a43e 093d d3dc 1ebd 709a 73bd
00000140: cd5c 46bd ceaa 94bc 9aa0 48bc 91d6 cc3c
00000150: 9d89 af3b b9e4 18bc 7c46 8a3b 5b33 8abb
00000160: 7dde dcbc d48b 263d 6b06 edbc b9be c1bc
00000170: 89fa 0bbd 6089 2dbc 5681 07bc 9b53 b1bc
00000180: 2246 ffbc 5dfc d63c 6946 44bb 9724 fe3c
00000190: 3130 10bd b658 5a3d d5b5 d43c 31b5 f1bc
000001a0: 14b9 593d 256d 13bd 722d 8639 897a 84bd
000001b0: 988f 6abc f9a1 d7bc f2f7 21bd 1150 5cbb
000001c0: cff8 753d b8e3 acbc d4d1 26bd b252 71bd
000001d0: 0949 8bbd 9ad6 433d 039b 233d f989 e13c
000001e0: eb5c 05b8 595c c33c e2b1 debc 6c96 69bc
000001f0: ecda 2b3b 58f9 e2bc 07cf a7bc 71ea 9bbc
00000200: 36fe 53bd c22d 92bc a619 053d 2bf3 b63c
00000210: 75df 1cbb a31a a03d 7bbe 023d b7ee 2fbd
00000220: 1ec3 283c 17c7 19bd ee80 ecbb 53ea 49bd
00000230: 5182 0cbd 4d60 e53c 5545 e7bb d0d4 15bd
00000240: 1a75 a6bb d83e 56bd 68be 473b 844c 50bc
00000250: a92d 123c 237a 7cbc e833 66bc a3ab 883c
00000260: e103 b03b ff7f ef3a a811 e03b 27db fbbb
00000270: e6a0 f9bc dda4 41bd 4143 19bc 2ca5 20ba
00000280: 9d29 003d 762b 68bd ecd3 e13b c99e 003d
00000290: fae5 25bd 67d4 1d3d 6b16 21bd b15e 053b
000002a0: 2244 10bd 1d6d 00ba e241 8fbc 0ad1 ffbc
000002b0: 4275 c4bb 6007 9fbc 39ed f93c 4406 a73c
000002c0: 3166 243d 3b09 17bd 98d7 61bc 3edd a43c
000002d0: bc1b 74bc 97ed 92bc a8be a0bc ba62 c93c
000002e0: 69c7 2d3d b152 08bd 07ba 713c 28e3 0abc
000002f0: cfa7 d3bc dd09 223c 273d 4bbd 7c0d bbbc
00000300: 0e64 00bb 4c09 98bc d56f 2bbd 0f5b 573d
00000310: 6000 8ebc 592a 423c 5d8b 8dbb 5833 ce3c
00000320: 6013 81bc ce35 87bb 7ea4 fd3c 1edf d5bc
00000330: 053c f43c 2a9d 6a3c 8059 83bc 68e0 bbbc
00000340: 8a93 5d3d 4b74 3abc 7ccc a9bc 94c4 b53c
00000350: f169 023d 1f6b 50bd 0395 7dbd a335 1b3c
00000360: 6b9d 2ebd 0d0a 70bb 87a8 e0bb 8581 3dbd
00000370: 2b32 1a3d d826 00bd bf99 89bc ad20 2abc
00000380: 241b bbbc 1bb0 fabc 91d6 3d3d 2875 15b8
00000390: e64a 6c3c 4613 873c 807e 62bb 848e 3ebd
000003a0: 2ce1 2abc e7e7 f93c c383 2c3c 7de5 d23c
000003b0: e434 8abc 6339 093c 70ef 483c c679 33bc
000003c0: af06 96bc 05ac 67bc 8b47 003d ef33 6b3c
000003d0: dd60 bf3c 0c50 1cbc 7bc3 b03c 57ad 2fbd
000003e0: d2a5 143d 7a9b 053d 5d05 72bc 7a55 10bd
000003f0: 4490 0bbd 3d57 86bc 6275 663c 3931 aabc
0.042342227 0.050078396 -0.034728568 -0.03382031 0.052476916 0.0049926457 0.038921736 -0.007908575
0.026552603 -0.005801312 0.06333538 -0.03239622 0.01082349 0.021345621 -0.043670867 -0.010324351
0.033508092 -0.0061063203 0.006783368 -0.000492094 -0.04476834 0.0077272886 0.007070413 -0.0019977503
-0.046901524 -0.020943971 0.058977157 0.0020155217 0.017904557 -0.0123164 -0.02811725 -0.049591146
0.020115647 -0.0018452405 0.03210837 -0.07054335 0.043561723 0.05492939 -0.057010822 -0.025772223
-0.05052534 -0.0055149067 -0.0002427277 0.00830418 -0.00986057 0.04404428 -0.002657368 -0.085276365
-0.008095713 0.025072355 0.00848757 -0.0061030714 -0.035622828 0.030668005 -0.013393032 -0.0028243205
-0.045558054 -0.043663096 0.035050303 -0.003075261 -0.009564357 -0.073354416 -0.035664957 0.0064352327
-0.028266443 -0.01264639 -0.029563555 -0.022526802 -0.0069757774 0.056653228 0.00051546993 -0.021438915
-0.037670057 0.019025905 0.041311476 -0.067594856 -0.07228596 0.033507004 -0.038784813 -0.059473455
-0.048428345 -0.018147852 -0.012245322 0.025004657 0.005356981 -0.0093318755 0.004219828 -0.004217548
-0.02696156 0.040660694 -0.028933724 -0.023650514 -0.034174476 -0.010591835 -0.008270582 -0.021646312
-0.031161372 0.026243383 -0.0029949194 0.031023307 -0.03520221 0.053307258 0.02596561 -0.029505344
0.05315502 -0.03599276 0.0002559233 -0.06468684 -0.014316462 -0.026322352 -0.0395431 -0.003361706
0.060051735 -0.021104679 -0.04072745 -0.058916755 -0.0680104 0.047812082 0.039942753 0.02753161
-3.1796208e-05 0.023847746 -0.02718443 -0.014257055 0.0026223017 -0.027706787 -0.02048446 -0.019032689
-0.051756106 -0.017844085 0.032495163 0.022332748 -0.0023936902 0.078175806 0.031919938 -0.042952266
0.010300426 -0.037543382 -0.007217518 -0.049295735 -0.034303967 0.028000021 -0.0070578256 -0.036579907
-0.0050798776 -0.052306026 0.0030478481 -0.012713555 0.008922019 -0.015409979 -0.014050461 0.016683405
0.005371556 0.0018272399 0.0068380423 -0.007686037 -0.03047223 -0.047276367 -0.0093544135 -0.0006128128
0.031289686 -0.056682073 0.006891718 0.03140143 -0.040502526 0.03853264 -0.03932802 0.002035063
-0.035221227 -0.00048990716 -0.01748747 -0.031227607 -0.0059954235 -0.019412696 0.030508624 0.02038873
0.04013652 -0.036874037 -0.013784312 0.020125028 -0.0148991905 -0.017935557 -0.019622162 0.02458321
0.0424265 -0.033281986 0.014753825 -0.00847701 -0.025836853 0.009890047 -0.049618866 -0.022833578
-0.0019590887 -0.01855912 -0.0418547 0.052577075 -0.017334163 0.011850917 -0.004319592 0.025170967
-0.015756309 -0.004126287 0.030962225 -0.026107367 0.029813776 0.014319697 -0.016033888 -0.022934154
0.054095782 -0.0113802655 -0.020727389 0.022188462 0.031839315 -0.05088341 -0.061909687 0.009473237
-0.042630594 -0.0036627084 -0.0068560275 -0.046266098 0.0376455 -0.031287044 -0.016796945 -0.010383767
-0.02284009 -0.030601552 0.046347205 -3.563348e-05 0.014422154 0.016488682 -0.0034560263 -0.046522632
-0.010429662 0.030506087 0.010529461 0.025744194 -0.016870923 0.0083754985 0.012264118 -0.010954326
-0.018313734 -0.014140134 0.03131823 0.014355644 0.023361618 -0.009540569 0.021577587 -0.04288992
0.03629095 0.032618977 -0.0147717865 -0.035237767 -0.03407313 -0.01639902 0.014066072 -0.020775424

decoder.0.bias f4 [32]
00000000: 46ec 42bb fa7d f2bc 1afa f4ba 597d a3bc
00000010: 3922 c8bb a222 ef3c f7db 533b 7f4d 92bc
00000020: 289e d03c 78af 713c edd6 293d 3074 70bc
00000030: 2ce8 013b 4148 863b 673b 2b3c 5a62 28bd
00000040: ad27 053d 7662 043d 1844 743c 2b3d 2dbd
00000050: b22e 113d 4776 253d b0b9 b2bc 8f1f 9d3c
00000060: afbc 24bd 7042 9c3c 7e48 cfbc 5470 9dbc
00000070: 0b12 03bd aa42 3a3c fc77 c73b ac13 2bbd
-0.002974288 -0.029601086 -0.0018690259 -0.019957231 -0.0061075953 0.029191319 0.0032327154 -0.017859219
0.02546604 0.014751308 0.041464735 -0.014676139 0.0019822223 0.004097969 0.010451174 -0.04110942
0.03250854 0.032320462 0.014908813 -0.042294662 0.035444923 0.040396 -0.021817058 0.019180087
-0.040219005 0.019074649 -0.025303122 -0.019218601 -0.03199963 0.011368433 0.0060873013 -0.041766807

decoder.1.weight f4 [32]
00000000: ee92 793f 7086 7c3f df0a 853f c24c 813f
00000010: 9bb9 813f 1f51 823f 84b1 7b3f c894 763f
00000020: 5d6c 853f 872c 7d3f 5eb2 823f 5b8f 803f
00000030: 9380 783f 8efe 813f b020 813f 52c1 803f
00000040: bdd7 803f 8889 7d3f 1851 803f 6045 823f
00000050: 680a 833f 28e0 7a3f c35e 7a3f 1e74 7d3f
00000060: 73d0 7f3f 9175 813f 04ce 7e3f 717f 803f
00000070: 7c2c 803f 3d2a 813f 43a7 713f 342f 7f3f
0.9748982 0.98642635 1.0393943 1.010155 1.0134767 1.0181006 0.9831774 0.9632077
1.0423695 0.9889607 1.0210683 1.0043749 0.9707119 1.0155809 1.00881 1.0058997
1.0065838 0.9903798 1.0024748 1.0177422 1.0237551 0.97998285 0.97800845 0.99005306
0.99927443 1.0114003 0.99533105 1.0038892 1.0013576 1.0091015 0.94395846 0.996814

decoder.1.bias f4 [32]
00000000: 66a8 6abd 6837 4bbc 3357 063d 5789 703c
00000010: 13c3 443c 954c 573c 0f41 4cbc 74bc 50bd
00000020: 8995 343d f987 143c d63f cd3c 65f7 b03b
00000030: 5bf0 0abd 603a f53c d13c 003d 8833 feba
00000040: 6d3a aa3c cb7f d9ba 6a26 9b3c 5a97 c93c
00000050: 780e 793c 1485 31bd aa60 15bd 0c87 68bc
00000060: dcf9 213c d3f5 883c ef5b 23bc 9568 7a3b
00000070: 7a24 5b3c 043d 6e3c 1918 5bbd aeec 7a3c
-0.057289504 -0.012403347 0.032798003 0.014681182 0.0120094 0.013140817 -0.012466683 -0.050960973
0.04408792 0.0090656215 0.025054853 0.0054005855 -0.033920627 0.029935062 0.031308 -0.001939402
0.020779813 -0.0016593871 0.018939216 0.024608303 0.0152012035 -0.043339804 -0.03646914 -0.014192354
0.009886231 0.01671878 -0.009970649 0.0038209308 0.013375396 0.014540914 -0.05348978 0.015315218

decoder.1.running_mean f4 [32]
00000000: e0a3 b33e a04f 1abe 7530 f0be 6772 f3be
00000010: 09d3 9cbe 0271 f3be b325 473e 78ed 2e3e
00000020: 290b 99be 7203 57be 960f 97be 482a d3be
00000030: e59f 1c3e d5f4 32bf ccf4 77be 971d efbe
00000040: 8ebd 3fbf 88c7 e33c 2f1c f8be 9e87 92be
00000050: 8040 d6bd f275 163e 9790 fdbd 14b1 a73e
00000060: f7ef d7be 0117 dcbe 60ea f3bd bc1b 6abe
00000070: fb17 2bbf ba87 15bf 9892 d53e 5387 15bf
0.35085964 -0.15069437 -0.4691197 -0.4754822 -0.30629757 -0.47547156 0.19447975 0.17082775
-0.29891327 -0.20997408 -0.2950408 -0.41243196 0.1529537 -0.69904834 -0.24214476 -0.46702263
-0.7489861 0.027805105 -0.48459002 -0.28619093 -0.10461521 0.1469343 -0.12381094 0.32752287
-0.42175266 -0.429863 -0.11909938 -0.22862142 -0.66833466 -0.5841023 0.41713405 -0.58409613

decoder.1.running_var f4 [32]
00000000: 3459 753e a4cd a83e 9a9f 313e 7dc9 043f
00000010: 8b88 463e 52b6 473e 535e 8d3e 02e4 5b3e
00000020: 8666 2a3e a9e4 4e3e 4645 b03e 4c49 9d3e
00000030: f60e 373e aa12 f13e 6e8f 273e 0560 073f
00000040: 7636 433f f089 813e de7c 3b3f 2266 583e
00000050: daaf d23e 0863 193e 42eb 933e 3657 9a3e
00000060: 181e ab3e 6dae f43e 7554 053f 43c8 443e
00000070: 101c aa3e dfe2 d83e a989 4a3e fbcf 1b3f
0.2395981 0.3296939 0.1734604 0.51869947 0.19388025 0.19503143 0.27611026 0.21473697
0.16640672 0.20204414 0.3442785 0.30719984 0.17876801 0.47084552 0.16363308 0.5288089
0.76254976 0.2530055 0.7323741 0.2113271 0.4114979 0.14979184 0.28890425 0.30144662
0.33421397 0.47789326 0.52081996 0.19217019 0.33224535 0.4236059 0.19779076 0.6086423

decoder.3.weight f4 [32, 16, 4, 4]
00000000: eadb 82bd c206 31bd faad 983c 8f18 03bd
00000010: 69bc 4abd 2e80 aebc 04c5 893c 3c7b 46bd
00000020: d796 2ebd 5745 fd3b 20c1 c5bc 7d5f 213d
00000030: 16c2 f7bc 85c8 df3c 9d49 fc3c d46d 8d3c
00000040: 6e22 07bd 3463 93bd 3c80 b33c ebe3 933b
00000050: 43db 523b 7211 a5bd 1e1b 68bc 9648 17bd
00000060: e07b 253d f815 f2bc 9384 ed3c 8175 c5bc
00000070: 3725 50bd 01bc 2fbc 4edc fe3c 8aa6 3abd
00000080: 6190 043c 02ea 17bd b5ea d63c ccda 02bd
00000090: 1403 66bb 2945 163d 1b8e 90bd a870 ab3b
000000a0: c925 74bc 49d2 e4bc 12a3 3dbd f032 cb3b
000000b0: adcb 1fbd 2a14 17bc 2565 9d3c b915 643c
000000c0: 2596 dcba 0915 cf3c 8329 75bc 41c3 19bd
000000d0: bccb 00bd 21ae 113d 5977 0d3a a2bc 17bd
000000e0: aa41 3fbd 3175 11bd 4c8f 46bd dcc4 9f3b
000000f0: 7458 66bd 4a76 6bbd b659 e13c 2f51 a13c
00000100: 88ff d83c 9454 aebc cc13 593d 8a3d b33c
00000110: b84b af3b 187f 88bd d231 9d3d 7fab a73c
00000120: 0ccb 84bd e999 143c ea30 34ba 2549 50bc
00000130: 7332 3ebd 962f 7abd 2f55 5d3d 26b7 fa3b
00000140: cef2 9f3d 68b7 273c df8f 433d afb7 7ebc
00000150: 190a c53d d6f5 cc3d d303 2fbc 0583 1d3d
00000160: 23e6 a53c b5d0 c93d b0de c33c 60c9 ee3c
00000170: 24e8 373c 46c7 a63b fa41 193c 046a bbbb
00000180: f7a3 f8bc b889 143d d82c b53b 93f3 18bd
00000190: bd06 d9bb fda9 9fba 1b2f bf3b c956 f3bc
000001a0: 7fba c8bb f864 bebd 407d 2ebd eac1 073d
000001b0: 59bf 2fbc 4085 3bbd 2fd1 bebc 0a71 b4bc
000001c0: ea64 34bd f87c a63a 2a3d 61bc 6193 843c
000001d0: 2b55 66bc 75c4 63bd a9d7 383c 083b 113d
000001e0: c15e e5bc a9cc 40bd a73c 16bc 10a5 31bb
000001f0: d613 63bd 880a 81bd 824e 50bd 8777 0dbd
00000200: 4f1c 20bd 1c47 403d ebe3 49bd 540f 013d
00000210: a815 65bd 5bc9 bcbb f581 173d 10c9 9e3c
00000220: be67 923c c995 c7bb 6b5c 12bd 8b11 6dbd
00000230: a623 abbc 78b5 45bc a52a 043c 0993 16bd
00000240: db76 4dbd f822 8cbd b50f 413c 09bb 153c
00000250: 7901 10bd 84b3 ee3c 52d8 8b3c 3eee 56bd
00000260: c3c7 00bd 7946 3abc 4c38 953c d215 97bd
00000270: 7dd9 e93c 46e5 d1bc ee82 5abd 2f85 11bc
00000280: 736a 9cbd 25c3 73bd cdf3 0d3d f67d 21bc
00000290: 67e8 6bbd 5497 30bd 1b13 9d3c c28f 933c
000002a0: 86e3 89bd bb83 b5bb 517c 52bd fb7a 1bbd
000002b0: 2852 073d 1cf8 2cbd 385f d6bc b74b cabc
000002c0: 721b 52bb 388f bc3c f885 3fbd bb47 d0bc
000002d0: 55d1 63bc bba3 18bd 4775 17bc 08dd e4bc
000002e0: 3c93 083d f52c dcbb 0492 71bd ce0a 073d
000002f0: be59 003d 9b06 3d3b 968f aa3c b621 033d
00000300: f077 133d 7834 50bd 1437 143d 0a00 0b3d
00000310: 836c 2ebb 4378 26bc 5bb0 1abd ce10 87bb
00000320: ef75 7c3b c3e1 93bd 1116 9c3c 19bc 82bd
00000330: 39fe a83b 8ea6 96bc 5a1a a23b e057 5cbc
00000340: 18ca 933d e581 1abc 0377 00bc b356 e1bb
00000350: 28da 5a3d b8fc 473d d556 36bd bf1d 08bc
00000360: d675 a3bc 4851 b83c 876d 0abd e3ae 9c3c
00000370: cc9a 4a3c 2e84 3dbd e8e2 91bd db4c 9ebd
00000380: cea7 41bd f788 8e3c 422d 8e3c 8e85 79bd
00000390: 1296 67bd ef10 e0bc ae46 4b3d aa1e 053d
000003a0: 64f7 8f3c fdcd 753c 74d8 82bd c8d6 f839
000003b0: eb23 c63c 603c 99bc 942a 03bc c75e 35bc
000003c0: 396f 203d ea1b fb3c 3894 a0ba 7c17 2dbd
000003d0: 36b4 e7bb 45c7 bf3c 2809 4d3d fa49 efbc
000003e0: 447c 4f3b 70f6 79bc 451d eebc e8e0 69bd
000003f0: fd26 4c3c 4c41 d439 5a9d 01bd 1db6 21bd
-0.063896015 -0.043219335 0.018637646 -0.032005843 -0.04949609 -0.021301355 0.016817577 -0.04845737
-0.04262432 0.007729213 -0.02413994 0.039397705 -0.030243915 0.027317295 0.03079682 0.017264284
-0.03299182 -0.07196656 0.021911733 0.004513254 0.0032174147 -0.08059968 -0.0141666215 -0.036934458
0.04040134 -0.029551491 0.02899388 -0.024103882 -0.05081674 -0.010725976 0.031110909 -0.04556898
0.008091063 -0.0370884 0.026234964 -0.031946942 -0.003509705 0.03668705 -0.070583545 0.0052319355
-0.014901587 -0.027932303 -0.046298094 0.0062011406 -0.0390126 -0.009221116 0.019213269 0.013921195
-0.0016829415 0.025278585 -0.01496351 -0.037539724 -0.031444296 0.035566453 0.00053965073 -0.03704513
-0.04669348 -0.035512153 -0.048476502 0.0048757624 -0.0562367 -0.057485856 0.027508598 0.019692032
0.026489034 -0.021280564 0.052997395 0.02187993 0.0053496026 -0.06664866 0.07675518 0.020467518
-0.064840406 0.009069898 -0.0006873744 -0.0127127515 -0.04643483 -0.061080538 0.054036316 0.0076512275
0.07809983 0.010236599 0.047744628 -0.015546723 0.096210666 0.10007827 -0.010682064 0.038455028
0.02025134 0.09854261 0.023909897 0.029148757 0.01122478 0.005089673 0.009354109 -0.005719425
-0.030351622 0.03626415 0.0055290274 -0.037341665 -0.0066231177 -0.0012181398 0.005834473 -0.029704468
-0.0061257477 -0.09296602 -0.042599916 0.033143915 -0.010726773 -0.045781374 -0.023293106 -0.022026557
-0.04404155 0.0012702039 -0.013747493 0.016183557 -0.014058392 -0.055607278 0.011281886 0.035456687
-0.027999284 -0.04707018 -0.009169734 -0.0027106442 -0.05543884 -0.06300837 -0.05085612 -0.03453782
-0.039089497 0.046942815 -0.049289625 0.03150876 -0.055928856 -0.005761308 0.03698917 0.019382983
0.017871734 -0.006090854 -0.035732668 -0.05787806 -0.020891022 -0.012067191 0.008066808 -0.036761317
-0.050162178 -0.06842607 0.01178353 0.009138831 -0.035157654 0.029138334 0.017070923 -0.0524733
-0.031440508 -0.011369341 0.018215321 -0.07377209 0.02854609 -0.025622021 -0.05334752 -0.008881851
-0.07637491 -0.059512276 0.034656335 -0.009856692 -0.057594683 -0.043113068 0.01917415 0.018012885
-0.0673285 -0.005539385 -0.05138809 -0.03795908 0.033037335 -0.042228803 -0.02616845 -0.024694307
-0.0032059816 0.02301751 -0.046758622 -0.025424829 -0.013904889 -0.03726552 -0.00924427 -0.027937427
0.03334354 -0.0067192265 -0.058977142 0.03296929 0.031335585 0.0028843048 0.02082042 0.03201457
0.036003053 -0.050831288 0.03618534 0.033935584 -0.002661497 -0.010160509 -0.037765842 -0.0041218763
0.0038522442 -0.07220795 0.01905349 -0.06383533 0.005157259 -0.018389966 0.004946989 -0.013448685
0.07216281 -0.009430383 -0.007840875 -0.0068767904 0.053430706 0.048824996 -0.044516403 -0.008307873
-0.01995365 0.022499695 -0.03379586 0.019126361 0.012366008 -0.046268634 -0.07123357 -0.07729503
-0.04727917 0.017399294 0.017355565 -0.060918383 -0.056539603 -0.027351825 0.049627952 0.032499947
0.01757402 0.015002725 -0.063889414 0.0004746227 0.024187049 -0.018705547 -0.008005757 -0.01106996
0.03916857 0.030652959 -0.0012251204 -0.042258725 -0.0070710434 0.023410449 0.05005756 -0.02921008
0.0031659761 -0.015256509 -0.029066691 -0.057099253 0.012460467 0.0004048444 -0.031644203 -0.039480317

decoder.3.bias f4 [16]
00000000: 397d 963c e57a c7bc 66d7 48bc eade 9f39
00000010: e12c 913c a85c 44bd 8697 3c3d a567 573d
00000020: 7df9 423d 3c96 1cbd ec3c 0abd 7637 5f3c
00000030: 4c90 123d 0862 6d3c 5fdb 533d 6bd1 72bd
0.018370258 -0.024350593 -0.012258386 0.00030492927 0.017721595 -0.047939926 0.04604294 0.052589078
0.04760121 -0.038229212 -0.033749506 0.013624063 0.035782143 0.0144887045 0.05172288 -0.059281748

decoder.4.weight f4 [16]
00000000: 3151 8e3f ba19 8e3f 8c59 8d3f 3ea0 8d3f
00000010: 723e 8e3f c86d 8e3f 8b3b 8e3f 5bbc 8c3f
00000020: 39a2 8e3f 8b00 8d3f 7f6d 8e3f 8d2d 8e3f
00000030: 595a 8d3f a628 863f 4dbe 893f fdbf 8c3f
1.1118528 1.1101601 1.1042953 1.1064527 1.1112807 1.1127253 1.1111921 1.0994982
1.1143256 1.1015791 1.1127166 1.1107651 1.1043197 1.0481155 1.07612 1.099609
